src/model/model_training.pth (torch, 17480 bytes, 4 tensors)

linear1.weight f4 [256, 11]
0	0x3d719edb	0.058989387
1	0xbcc1f69d	-0.023677165
2	0x3d8e7be5	0.06957225
3	0x3e6b624a	0.22986713
4	0xbd34a258	-0.044100136
5	0x3b8cb534	0.004294062
6	0x3e00b02f	0.12567209
7	0x3e3ff1ad	0.18744536
8	0xbd341687	-0.043966796
9	0x3c068ca6	0.008212244
10	0xbdd96bd2	-0.10616268
11	0x3d9a2340	0.07526255
12	0xbd7c32bf	-0.061571833
13	0xbd5283e0	-0.051395297
14	0xbe90a102	-0.2824784
15	0x3e65f5d7	0.22457062
16	0xbe5e0559	-0.21681727
17	0xbe2998c0	-0.16562176
18	0xbdbf1ad3	-0.09331288
19	0xbde78c60	-0.11306071
20	0xbe488d4a	-0.19585148
21	0xbe7398b4	-0.2378872
22	0x3e40fbe6	0.18846092
23	0xbe976dbd	-0.2957591
24	0x3e8728de	0.26398367
25	0x3e7d932c	0.24763173
26	0x3e99b9c0	0.30024529
27	0xbd7db0c1	-0.061936144
28	0xbe724701	-0.23659898
29	0xbe8297c0	-0.255064
30	0xbe7d3336	-0.24726567
31	0x3e85035d	0.25979128
32	0xbe5c8f42	-0.21539024
33	0xbe8c18e7	-0.2736275
34	0x3d8a9093	0.067658566
35	0x3e37a64e	0.17934534
36	0xbe0b34fa	-0.13594428
37	0x3e2cc694	0.16872627
38	0xbe5e8b1e	-0.21732756
39	0xbe29d28e	-0.16584226
40	0x3df2c182	0.11853315
41	0xbe2e51d4	-0.17023402
42	0x3da8fab1	0.082509406
43	0xbd59df8c	-0.053191707
44	0xbe102b7b	-0.14079086
45	0xbd9ac0fd	-0.07556341
46	0x3d570c37	0.052501883
47	0x3e2cefe7	0.1688839
48	0x3e575d58	0.21031702
49	0xbe8a4cf1	-0.27011827
50	0x3e783a15	0.24240907
51	0x3e563475	0.20918448
52	0x3e9429e5	0.28938213
53	0x3e5bf8e2	0.2148166
54	0xbdcad152	-0.09903206
55	0x3e3c6ec8	0.18401635
56	0x3d6a89ce	0.057260327
57	0x3dfa70ef	0.122285716
58	0xbe400e45	-0.18755443
59	0x3e1143cf	0.14186023
60	0x3dcb9c63	0.09941938
61	0xbe2f24f8	-0.17103946
62	0xbe74f01e	-0.23919722
63	0x3e880356	0.26565045
64	0x3e9f9323	0.31166944
65	0xbc6ee210	-0.014580265
66	0xbb0e6b49	-0.0021731427
67	0xbe27b2dd	-0.16376825
68	0x3df17a10	0.1179086
69	0xbcdf2c72	-0.027242873
70	0x3e2b4904	0.16727072
71	0xbe83975d	-0.2570142
72	0x3e448e77	0.19194971
73	0xbe34089e	-0.17581412
74	0xbd85c478	-0.06531614
75	0xbe58c025	-0.21167047
76	0x3cd85afc	0.026410572
77	0x3eaa42ab	0.3325399
78	0x3ccabc6e	0.024748053
79	0x3e41352b	0.18867938
80	0x3e2b35e6	0.1671978
81	0xbe1f98c6	-0.15585622
82	0xbe5c13ef	-0.21491979
83	0x3da3dd38	0.080011785
84	0x3e3d4987	0.1848508
85	0xbe20a44f	-0.15687679
86	0x3e05bf90	0.13061357
87	0x3b5e741a	0.0033943714
88	0xbe516640	-0.20449162
89	0x3c069f33	0.008216667
90	0x3e622b13	0.22086744
91	0xbdeeb78b	-0.11656102
92	0xbd057b13	-0.032588076
93	0x3e40529b	0.18781511
94	0x3d6bce44	0.057569757
95	0xbdb44259	-0.08801717
96	0xbd8bcf18	-0.068266094
97	0xbe2e95c1	-0.17049314
98	0x3df39061	0.118927725
99	0xbe73cc7a	-0.2380847
100	0xbe5ccef7	-0.21563326
101	0x3da1f05e	0.079071745
102	0xbe8099b0	-0.25117254
103	0xbdeae4fc	-0.114694566
104	0x3e89dc67	0.26925966
105	0x3d35af09	0.04435638
106	0x3e908150	0.28223658
107	0xbca21423	-0.019784993
108	0x38abd616	8.193792e-05
109	0x3e26fb14	0.16306716
110	0xbd0963ad	-0.033542324
111	0xbcaa76b8	-0.020808563
112	0xbc9d027a	-0.01916622
113	0x3e980bc9	0.2969649
114	0x3e83742f	0.2567458
115	0xbe2378f9	-0.15964116
116	0x3e1d509d	0.15362783
117	0xbe4dd474	-0.20100576
118	0xbe45a8f4	-0.19302732
119	0xbe91e04c	-0.28491437
120	0xbd077392	-0.0330692
121	0x3bb69aec	0.0055726673
122	0xbe7a1a7b	-0.24424164
123	0xbe6d139b	-0.2315201
124	0xbd60d53c	-0.054890856
125	0xbe234267	-0.15943299
126	0x3e6d8d90	0.23198533
127	0xbe922bfc	-0.28549182
128	0xbe83e1ad	-0.25758114
129	0xbe0dcb5f	-0.13847111
130	0xbe305c24	-0.17222649
131	0x3d379bce	0.04482632
132	0xbe883894	-0.26605666
133	0x3e11dab1	0.1424358
134	0xbe0ebded	-0.13939638
135	0xbe1094e4	-0.14119297
136	0xbde451fc	-0.1114845
137	0x3e567930	0.20944667
138	0x3e8146da	0.25249368
139	0x3e1679c0	0.14694881
140	0x3ea0e4eb	0.3142465
141	0xbe296392	-0.1654189
142	0x3c26c5d9	0.0101790065
143	0xbe340d15	-0.17583115
144	0x3e230d88	0.1592313
145	0x3e7d2e1b	0.24724619
146	0x3e8c9a6b	0.27461562
147	0xbe10c4c5	-0.14137562
148	0x3dcaa80e	0.09895335
149	0xbe16dfcb	-0.14733808
150	0x3e5ce452	0.21571472
151	0xbe353ca0	-0.17698908
152	0x3e9268b9	0.28595522
153	0xbe290df1	-0.16509224
154	0x3d1afa91	0.037836615
155	0x3c457aa8	0.012053169
156	0x39d5389f	0.00040668712
157	0x3e94e8ec	0.29083955
158	0x3e123290	0.142771
159	0xbe8572bc	-0.26064098
160	0xbe6cdf6d	-0.23132105
161	0x3d7b1c74	0.061306432
162	0xbdaeb357	-0.085303
163	0x3d93080a	0.07179268
164	0xbd5c0287	-0.053713348
165	0x3e40608e	0.18786833
166	0x3e78bc89	0.2429067
167	0x3e8db62a	0.27678043
168	0xbda29d7d	-0.07940195
169	0x3e4aa334	0.1978882
170	0x3dcbe5bb	0.09955927
171	0x3d3aec2c	0.045635387
172	0x3e97bf10	0.29637957
173	0xbde0d9f5	-0.10979072
174	0x3cf27f52	0.029601727
175	0x3e87ad20	0.2649927
176	0xbdb53137	-0.088472776
177	0xbe9756eb	-0.295585
178	0x3e1b49d6	0.15164885
179	0xbc9db036	-0.019249063
180	0x3e922e76	0.28551072
181	0x3e416171	0.18884827
182	0xbd4219da	-0.047387935
183	0xbb41101a	-0.002945906
184	0xbdae438f	-0.085089795
185	0x3e75e66b	0.24013679
186	0xbd96fe33	-0.073727034
187	0x3e0dafdb	0.13836615
188	0x3e2fb828	0.17160094
189	0x3db608b6	0.0888838
190	0x3e1814fa	0.14851752
191	0x3e1e5585	0.1546231
192	0x3d2ef514	0.042714193
193	0x3e68a747	0.22720061
194	0xbe9fb3b3	-0.31191787
195	0x3e86c2e3	0.26320562
196	0x3e79da73	0.24399738
197	0x3b778613	0.0037769123
198	0xbe6d1e15	-0.23156007
199	0x3dc2145c	0.094765395
200	0xbe0ef1ec	-0.13959473
201	0xbe0752d5	-0.13215192
202	0x3c46cdcd	0.012134028
203	0x3db3dd38	0.087824285
204	0x3e2bbf57	0.16772209
205	0xbe87f0f9	-0.26551035
206	0xbe4d154c	-0.20027655
207	0x3e8d51f0	0.27601576
208	0x3e9ea5e8	0.3098595
209	0x3dfc58de	0.123216376
210	0xbe0daec1	-0.13836195
211	0xbd0fe185	-0.03512718
212	0x3e08f99f	0.13376473
213	0x3dd72d7b	0.105067216
214	0x3d3e5a4e	0.04647284
215	0xbe12096c	-0.14261407
216	0xbdf00993	-0.11720576
217	0x3ba3f9cd	0.005004144
218	0x3e8ced94	0.27525008
219	0xbe540710	-0.20705819
220	0xbe26bc62	-0.162828
221	0xbdead234	-0.11465874
222	0x3e8a7ba3	0.27047452
223	0x3dcb2254	0.09918657
224	0xbc29ea82	-0.010370852
225	0xbd6dc362	-0.05804766
226	0xbd6dc271	-0.058046762
227	0x3e6ab90e	0.22922155
228	0x3dcf5b90	0.10124886
229	0xbe71972f	-0.23592828
230	0xbd7e38ed	-0.062066007
231	0x3e1ce739	0.1532258
232	0x3e9d088b	0.3067058
233	0xbe8d1aaa	-0.27559406
234	0x3e646a94	0.22306281
235	0x3c3a6fd0	0.011379197
236	0x3d29a54c	0.041417405
237	0x3e407dea	0.18798032
238	0x3dc1fb90	0.0947181
239	0xbddcfdf7	-0.107906274
240	0xbe68fe5b	-0.22753279
241	0x3e4872ba	0.19575015
242	0x3e2c8b92	0.16850117
243	0x3e3f6a8f	0.18692993
244	0xbdc52f77	-0.09628194
245	0xbd4814e1	-0.048848037
246	0x3dacd884	0.084397346
247	0x3e21bbf5	0.15794356
248	0xbd6aef3e	-0.057357065
249	0x3e8b690d	0.27228585
250	0x3dc0d814	0.09416214
251	0x3e5d4f42	0.21612266
252	0xbe275700	-0.16341782
253	0xbe98b332	-0.29824215
254	0x3e0a456e	0.13503048
255	0x3e11a426	0.14222774

linear1.bias f4 [256]
0	0x3e563d9b	0.20921938
1	0x3e803405	0.25039688
2	0xbe869e3b	-0.26292595
3	0x3de609e4	0.11232355
4	0xbda54c6d	-0.08071218
5	0x3d68f3db	0.056873184
6	0x3e1d8fbb	0.1538686
7	0x3cd91215	0.02649788
8	0xbe93c1a7	-0.28858683
9	0x3e8a1d6e	0.26975578
10	0xbd9707c1	-0.07374526
11	0xbe1e4be6	-0.1545864
12	0x3e2ceee4	0.16888005
13	0xbd7259e8	-0.059167773
14	0xbb8985be	-0.0041968515
15	0x3debf387	0.115210585
16	0x3e2ae493	0.16688757
17	0xbe9afcc9	-0.30270985
18	0xbe04a3cd	-0.1295311
19	0xbe2d9371	-0.16950776
20	0x3e161480	0.14656258
21	0x3e87c01c	0.26513755
22	0x3e007ea2	0.12548307
23	0x3ccb1fb1	0.024795385
24	0xbe251ccc	-0.16124266
25	0xbddb6382	-0.10712339
26	0x3d580444	0.052738443
27	0xbe6e42ed	-0.23267718
28	0xbe321613	-0.17391233
29	0xbe1d1c4f	-0.1534283
30	0xbdd6ca56	-0.10487811
31	0x3e20206a	0.15637365
32	0x3dfe88c4	0.1242843
33	0xbe783ea2	-0.24242643
34	0xbe5bd41b	-0.2146763
35	0xbe00dc28	-0.12583983
36	0xbe1d39c6	-0.1535407
37	0xbde032ed	-0.10947213
38	0xbe21326b	-0.15741889
39	0x3a261d29	0.00063367427
40	0x3e9a08db	0.3008488
41	0x3e601163	0.21881633
42	0xbd8fd241	-0.070225246
43	0x3bedcca6	0.007257062
44	0x3e678e07	0.22612773
45	0x3d0d499b	0.034494024
46	0x3c778338	0.015106969
47	0x3e390b43	0.18070702
48	0x3e338598	0.1753143
49	0x3d0c7817	0.034294214
50	0xbe1478d1	-0.14499213
51	0xbe72f941	-0.23727895
52	0x3e2a08f2	0.16604975
53	0xbe2797de	-0.16366526
54	0x3e2e6412	0.17030361
55	0x3e634bda	0.22196904
56	0x3e42be14	0.19017822
57	0xbd0981df	-0.03357112
58	0x3d8d175c	0.06889221
59	0xbe03c3ed	-0.12867709
60	0xbdfe1a93	-0.124074124
61	0x3d005e70	0.031340063
62	0xbe763bc2	-0.24046233
63	0x3e432821	0.19058277
64	0x3dbd9334	0.092565924
65	0xbe0a7aa8	-0.13523352
66	0xbe93caa9	-0.28865555
67	0xbe468659	-0.19387187
68	0xbc6bf8d2	-0.014402585
69	0xbe311039	-0.17291345
70	0x3e2bfd2c	0.16795796
71	0x3e809915	0.25116792
72	0xbe508f6c	-0.20367211
73	0x3dff3db0	0.12462938
74	0xbcf1c9bc	-0.02951514
75	0x3e5184e6	0.20460853
76	0x3e8df941	0.27729228
77	0xbe83f73c	-0.25774562
78	0xbdd6bdc6	-0.10485415
79	0xbe053a1e	-0.13010451
80	0x3e09d0cc	0.13458556
81	0x3e848f89	0.2589076
82	0x3ccfcb73	0.025365567
83	0x3e0cb8b6	0.13742337
84	0x3e15e624	0.14638573
85	0x3e948f44	0.29015553
86	0x3e95ba67	0.29243776
87	0xbdc2e12b	-0.09515604
88	0xbe8c8213	-0.2744299
89	0x3b9ee0d1	0.0048485775
90	0x3e421db8	0.1895665
91	0xbd6dc746	-0.05805137
92	0xbe20715f	-0.15668248
93	0xbe5f1394	-0.21784812
94	0xbe6a181d	-0.22860761
95	0xbd9a33f2	-0.07529439
96	0x3e76c04b	0.24096791
97	0x3da13b6b	0.07872661
98	0x3d647f95	0.055785734
99	0xbe8c17c9	-0.27361897
100	0xbd352745	-0.044226903
101	0x3dd4d74a	0.10392626
102	0xbd4f64b1	-0.050633136
103	0xbe56baf2	-0.20969751
104	0xbdf517b5	-0.119674124
105	0xbd09438e	-0.03351169
106	0xbd0ebbda	-0.034847118
107	0x3e367ac7	0.17820273
108	0x3e2fdc8b	0.17173974
109	0xbe870b1f	-0.26375672
110	0x3c7ada24	0.015310798
111	0xbe95c681	-0.2925301
112	0xbe16622e	-0.1468589
113	0x3e152b50	0.14567304
114	0xbd36fd0d	-0.04467492
115	0x3de606a8	0.11231738
116	0xbe802a30	-0.25032187
117	0xbe9fdee3	-0.31224737
118	0xbdc4fdd0	-0.096187234
119	0xbdd218f8	-0.10258669
120	0xbe240703	-0.160183
121	0xbd16622c	-0.036714718
122	0xbeab09ae	-0.33405823
123	0xbe1a1faf	-0.15051149
124	0x3cdb6387	0.026780857
125	0x3e928f7e	0.286251
126	0xbe210f97	-0.15728603
127	0x3d8a6f26	0.06759481
128	0xbe6d5764	-0.23177868
129	0x3dd57b22	0.10423876
130	0xbe6c82aa	-0.2309672
131	0x3e131ad9	0.1436571
132	0x3e7c393f	0.24631213
133	0x3d6c8713	0.057746004
134	0x3e0315ab	0.12801234
135	0xbe8b7a0a	-0.27241546
136	0xbd8fb517	-0.07016962
137	0x3e146a44	0.14493662
138	0xbe10dcd8	-0.14146745
139	0xbe1e5928	-0.15463698
140	0x3e8167ce	0.2527451
141	0x3df8aac5	0.12141947
142	0x3e3a2c4b	0.18180959
143	0x3e4a207f	0.19738959
144	0x3e8058d9	0.25067785
145	0xbe9b8504	-0.3037492
146	0xbccd3eaf	-0.025054304
147	0xbe8a25f1	-0.26982072
148	0xbe8865e2	-0.2664023
149	0xbe99bb53	-0.3002573
150	0xbe999b3d	-0.3000125
151	0xbdd59ab2	-0.104298964
152	0x3ddbb50e	0.10727893
153	0xbe1bd64a	-0.15218464
154	0xbe409e63	-0.1881042
155	0xbdb64edd	-0.08901761
156	0x3d9260f0	0.071473956
157	0xbe5680d9	-0.20947589
158	0xbe8cabbb	-0.2747477
159	0xbc8352ae	-0.016030636
160	0x3e3feb49	0.18742098
161	0x3e03acac	0.12858838
162	0x3e92a7d0	0.28643656
163	0x3e111127	0.141667
164	0xbe8de58f	-0.27714202
165	0xbe71b38a	-0.23603645
166	0xbe6f27db	-0.23355047
167	0xbe9244e8	-0.28568196
168	0x3e9efa70	0.31050444
169	0x3e1ecb1c	0.15507168
170	0xbe073198	-0.13202512
171	0xbd98e3b2	-0.074653044
172	0x3e7487d4	0.2387994
173	0x3e41ee11	0.18938471
174	0x3e8d5f64	0.2761184
175	0x3dd9f950	0.10643256
176	0xbd2b8166	-0.04187145
177	0xbdc8bfca	-0.09802206
178	0x3e277328	0.16352522
179	0xbd2af4d5	-0.041737396
180	0xbdcd8de6	-0.100368306
181	0xbe536777	-0.20644937
182	0x3e3ed0d9	0.18634357
183	0xbe441a17	-0.19150577
184	0x3e18c027	0.1491705
185	0xbe57dfbd	-0.21081443
186	0xbe865576	-0.26237077
187	0xbd5798ca	-0.052635945
188	0x3e8b21e9	0.2717431
189	0x3e85dc13	0.26144466
190	0xbe78e892	-0.24307469
191	0x3e3ccd2a	0.18437639
192	0xbe10f91d	-0.14157529
193	0x3e88f6eb	0.26750883
194	0x3d61e1c0	0.055146933
195	0x3bce9ad0	0.006305076
196	0xbe75775a	-0.2397131
197	0xbe7a688e	-0.24453947
198	0x3e1358d9	0.14389361
199	0xbe457d69	-0.19286121
200	0xbe147d39	-0.14500894
201	0x3e6e77a2	0.23287824
202	0x3e271920	0.16318178
203	0xbc1090a9	-0.008823552
204	0xbdb20b2a	-0.086935356
205	0xbcd8d98f	-0.026470928
206	0xbd20ade6	-0.039228342
207	0x3e12a5b6	0.14321026
208	0xbb5bce13	-0.0033539578
209	0xbdf6a41e	-0.120430216
210	0x3e4df0a3	0.20111327
211	0xbd9b7c72	-0.075920954
212	0x3dfeb060	0.124359846
213	0x3df98f10	0.1218549
214	0xbe6876d1	-0.22701575
215	0xbdb92a18	-0.09041232
216	0x3e27d3ca	0.16389385
217	0x3cd82e31	0.026389213
218	0xbe1c0d22	-0.15239385
219	0xbe82234f	-0.25417563
220	0xbe282d56	-0.16423544
221	0xbce3ba7e	-0.027798887
222	0x3ddc39a4	0.107531816
223	0x3e293b80	0.16526604
224	0xbe66d3b1	-0.22541691
225	0xbe93172f	-0.28728625
226	0x3e58609b	0.21130602
227	0xbe56eaa3	-0.20987944
228	0x3dd804d1	0.10547794
229	0xbe6894a2	-0.22712949
230	0x3eaf1f84	0.34203732
231	0x3e7600d3	0.24023752
232	0xbd9a1407	-0.07523351
233	0x3da12ef0	0.07870281
234	0xbe1fcc69	-0.1560532
235	0xbe995567	-0.2994797
236	0xbddf9076	-0.109162256
237	0x3e433f00	0.19067001
238	0xbe924efb	-0.28575882
239	0xbe955539	-0.29166582
240	0xbe91641b	-0.28396687
241	0xbe1abd30	-0.15111232
242	0x3e8c5470	0.2740817
243	0x3df0fa64	0.11766508
244	0x3dd76455	0.10517184
245	0xbe927eb4	-0.28612292
246	0x3db93a57	0.090443306
247	0xbe46bb40	-0.19407368
248	0xbdb90f12	-0.090360776
249	0xbd9662fa	-0.07343097
250	0x3dba764f	0.09104597
251	0xbe107cc4	-0.14110094
252	0xbce6e160	-0.028183639
253	0xbdd3a253	-0.10333695
254	0xbdc5c100	-0.096559525
255	0x3e00ba1f	0.12571

linear2.weight f4 [3, 256]
0	0xbd04e411	-0.032444064
1	0xbcc9ae94	-0.024619378
2	0xbd138549	-0.036015783
3	0x3ca10eee	0.01966044
4	0xbd8962b5	-0.0670828
5	0xbd61fb34	-0.055171207
6	0x3d131bee	0.035915308
7	0xbdb424c1	-0.08796073
8	0xbd10ecf8	-0.03538224
9	0xbd8e8752	-0.06959404
10	0xbd02c7f2	-0.031928964
11	0xbc800f89	-0.015632408
12	0x3c8118cf	0.0157589
13	0xbd29b271	-0.04142994
14	0xbce99b39	-0.028516399
15	0x3bf762ab	0.007549604
16	0x3b63fc63	0.0034787885
17	0x3c393ce6	0.011306023
18	0xbce4aa52	-0.027913246
19	0x3c38d09b	0.011280204
20	0xbd156b9a	-0.03647957
21	0xbbb99e24	-0.005664604
22	0xbcf5b8e7	-0.029995395
23	0x3d21054f	0.039311703
24	0xbdecde47	-0.115658335
25	0x3cd19af4	0.025586583
26	0xbdccc068	-0.09997636
27	0xbbc361b6	-0.005962576
28	0x3d34dbcc	0.044154927
29	0x3ca5f338	0.020257577
30	0xbca692db	-0.020333698
31	0x3cd749d5	0.026280323
32	0x3c65eaec	0.0140330605
33	0x3ce4fdbc	0.027953021
34	0xbdc457fc	-0.09587094
35	0xbd0a1016	-0.033706747
36	0xbc888c32	-0.016668413
37	0xbd8d498f	-0.06898796
38	0xbd22d8e6	-0.03975763
39	0xbd1197e0	-0.03554523
40	0xbc8ad8d6	-0.016949099
41	0xbc8387ea	-0.01605602
42	0xbba66b2e	-0.005078695
43	0x3bf39ef9	0.0074347225
44	0xbc35234d	-0.01105578
45	0xbc2fbdf4	-0.010726441
46	0xbd88fd5f	-0.06688952
47	0x3b04831a	0.0020219744
48	0xbd55818e	-0.052125506
49	0xbdad38df	-0.08458113
50	0x3cf40533	0.029787635
51	0xbcedcce1	-0.029028358
52	0xbd5057d1	-0.050865
53	0x3dde20f1	0.10846127
54	0xbd9d9834	-0.07695046
55	0xbd882c10	-0.06649029
56	0x3b178f54	0.0023126202
57	0x3d44a47d	0.04800843
58	0x3d380ddc	0.044935092
59	0xbd5abfc2	-0.05340553
60	0xbc85c92a	-0.016331274
61	0xbd9c92ab	-0.07645162
62	0x3c17a277	0.009255043
63	0xbc0de09c	-0.008659508
64	0xbd431340	-0.04762578
65	0x3b93dcbf	0.004512399
66	0x3cf828f9	0.030292975
67	0x3d41471c	0.047186956
68	0x3a9d58a9	0.0012004572
69	0xbd95c4ab	-0.07312902
70	0x3cbf0de3	0.023322051
71	0xbd422f6c	-0.047408506
72	0x3d08f486	0.03343632
73	0xbc6899fd	-0.01419687
74	0xbcad13b8	-0.021127567
75	0x3cc8ec14	0.024526633
76	0xbd94ea60	-0.07271266
77	0x3cd7b683	0.026332146
78	0xbc067230	-0.008205935
79	0xbd007d36	-0.03136941
80	0xbdb54d3a	-0.088526204
81	0xbd1c4eb4	-0.038160995
82	0xbd2c6f46	-0.042098306
83	0x3b27aaed	0.0025584057
84	0xbc8f5516	-0.017496627
85	0xbd4e9dbc	-0.050443396
86	0xbd9853eb	-0.07437881
87	0xbdb2e424	-0.087349206
88	0xbd09b060	-0.03361547
89	0xbccb6e8a	-0.024832983
90	0xbcdeddd7	-0.02720539
91	0xbd9994f6	-0.07499115
92	0x3c389320	0.011265546
93	0xbce44ba8	-0.027868107
94	0xbca700a5	-0.02038605
95	0x3d87acea	0.066247776
96	0xbd55ece0	-0.052227855
97	0xbd85bc56	-0.06530063
98	0x3c5ecfc6	0.013599342
99	0xbcc91466	-0.02454586
100	0xbd8331e2	-0.06405999
101	0xbd92650c	-0.071481794
102	0xbd47508e	-0.048660807
103	0x3ce97f88	0.028503194
104	0xbda8cc48	-0.082420886
105	0xbd48700b	-0.048934978
106	0xbd84d543	-0.06485989
107	0xbcca62af	-0.02470526
108	0xbd5f3548	-0.054494172
109	0x3cdd0cd1	0.02698365
110	0x3c93025c	0.017945461
111	0x3d16d726	0.036826275
112	0xbd07c0bf	-0.0331428
113	0xbc089abf	-0.008337676
114	0x3c0dd519	0.0086567635
115	0x3c9a3e63	0.018828576
116	0x3c69b4a8	0.014264263
117	0xbca2c23a	-0.019868005
118	0xbd7c9ea1	-0.061674718
119	0x3cc6bcbd	0.02425992
120	0x3c7ca1aa	0.015419403
121	0x3b32879f	0.002724148
122	0x3ce20c08	0.027593628
123	0xbd10a0aa	-0.03530947
124	0xbcfdd132	-0.030983541
125	0xbd47dee3	-0.048796546
126	0x3dae6ecf	0.08517229
127	0xbd68a0a4	-0.056793824
128	0x3d335e58	0.043791145
129	0xbb9cb6c7	-0.004782531
130	0xbd61ae40	-0.05509782
131	0xbcce73f8	-0.025201783
132	0xbd9de2ca	-0.07709272
133	0x3d1d5986	0.038415454
134	0x3c290ecd	0.01031847
135	0x3d75549c	0.059895143
136	0x3d5d1670	0.053976476
137	0x3b7141a6	0.003681281
138	0xb9723e07	-0.00023102025
139	0x3d1c4fb9	0.038161967
140	0xbd9f2101	-0.07769967
141	0xbbd07fe6	-0.006362903
142	0x3d5d5c0e	0.05404287
143	0x3b2ba203	0.0026189096
144	0xbc89bf4b	-0.016814848
145	0x3d597918	0.053094
146	0xbc96553f	-0.018351195
147	0x3d4359dc	0.04769312
148	0xbcf0dc76	-0.029401999
149	0xbc5fcb70	-0.013659343
150	0x3d3ff676	0.046865903
151	0xbd23c43b	-0.03998206
152	0x3cec0c23	0.028814381
153	0xbda23cac	-0.079217285
154	0xbccc0fdf	-0.024909912
155	0xbce3ecd4	-0.02782289
156	0x3ca85a32	0.020550821
157	0xbd1a816c	-0.037721083
158	0x3c07ef3a	0.008296782
159	0x39eb6fa8	0.00044905883
160	0xbdb59655	-0.08866564
161	0x3cda52bd	0.02665078
162	0xba34ac32	-0.0006892114
163	0xbdb8d7cf	-0.09025537
164	0x3cad3526	0.021143507
165	0x3bf1452b	0.007362982
166	0x3cabf4ff	0.020990847
167	0x3d14b4f4	0.036305383
168	0xbd3366f4	-0.043799356
169	0x3b3882f0	0.0028154217
170	0xbd726c85	-0.059185524
171	0x3c9037f6	0.01760481
172	0x3d0c5c8f	0.03426796
173	0x3d317565	0.043324847
174	0xbd0c5da3	-0.034268986
175	0xbd8703f3	-0.0659255
176	0x3bad81ff	0.0052950378
177	0xbc8ed477	-0.017435296
178	0xbd740c1b	-0.059581857
179	0xbd7e5899	-0.062096212
180	0xbdb6a6e9	-0.08918554
181	0x3c2a839e	0.010407357
182	0xbc52b13f	-0.012859642
183	0x3c902f48	0.01760067
184	0xbd53bd21	-0.05169404
185	0xbda806e1	-0.08204437
186	0xbd234f2b	-0.039870422
187	0xbd45f33c	-0.04832767
188	0xbd918e16	-0.07107179
189	0xbc0e2aba	-0.008677179
190	0xbd112ce6	-0.03544321
191	0xbcbc5d52	-0.022993717
192	0x3cde0f87	0.027107013
193	0x3c3e34e2	0.011609288
194	0xbc8a1a6c	-0.016858302
195	0xbcf6e506	-0.030138504
196	0x3ca70aa0	0.020390809
197	0xbaa8b942	-0.0012872594
198	0x3db33aa9	0.08751423
199	0x3cff095a	0.031132389
200	0xbdd5aaac	-0.10432944
201	0xbd407652	-0.04698784
202	0x3cee17d3	0.029064095
203	0x3ca4b3b2	0.020105217
204	0x3ce85b92	0.028363977
205	0x3d3f75f1	0.046743337
206	0x3cfcc370	0.03085491
207	0x3cdda43e	0.027055856
208	0xbcc57219	-0.024102258
209	0xbd067d0e	-0.032834105
210	0xbd0e704e	-0.03477507
211	0xbd8355bd	-0.06412838
212	0xbd887804	-0.06663516
213	0xbd6764fd	-0.056492794
214	0x3c018bde	0.007906882
215	0xbdb73731	-0.08946074
216	0xbdb47870	-0.08812034
217	0xbc906c3f	-0.01762974
218	0xbce49a35	-0.027905563
219	0xbafc817b	-0.0019264662
220	0xbd27f0c0	-0.04100108
221	0x3cd5480f	0.026035337
222	0xbce2172b	-0.027598938
223	0x3c3bc844	0.011461321
224	0x3c66d3ab	0.0140885515
225	0x3d4db870	0.05022472
226	0x3c82bb31	0.0159584
227	0x3d08643c	0.033298716
228	0x3aecbed6	0.0018062245
229	0xbc1cbf02	-0.009567024
230	0xbd525a85	-0.051355857
231	0xbd50289c	-0.050819978
232	0x3d16802b	0.036743324
233	0x3cc8af6f	0.024497716
234	0xbc9fbcef	-0.01949927
235	0xbcdd3ccf	-0.027006535
236	0x3c9dbe71	0.019255849
237	0xbd88cb04	-0.06679347
238	0x3cd2de0e	0.02574065
239	0xbdc8cceb	-0.0980471
240	0xbcf40e8f	-0.029792098
241	0x3d35d3a9	0.044391308
242	0xbc30db67	-0.010794497
243	0x3a3fc318	0.0007315143
244	0xbcdb65d5	-0.026781956
245	0xbd7cd5c0	-0.061727285
246	0xbd0be062	-0.034149535
247	0xbca45bdf	-0.020063339
248	0x3b0974b8	0.002097411
249	0xbd66ee9d	-0.056379903
250	0xbd99d7e6	-0.075118825
251	0xbc823bd5	-0.01589767
252	0xbd4fef5c	-0.05076538
253	0xbd622fb2	-0.055221267
254	0xbcb2d26a	-0.021828849
255	0x3b68ee91	0.0035542587

linear2.bias f4 [3]
0	0x3ceac03a	0.028656114
1	0xbd34d3e6	-0.044147395
2	0xbcf6f3d9	-0.030145572
