src/model/model_trained.pth (torch, 17216 bytes, 4 tensors)

linear1.weight f4 [256, 11]
00000000: 2844 0a3c d986 c13d b38f e33e 6327 8dbd
00000010: 3ad1 813e 2ba7 0cbe fb49 253e 0ccc 813e
00000020: 05dc 09be c467 b93e 911d 903e 6396 0dbd
00000030: ab35 f9be a652 743e 3234 1d3d 214c 46be
00000040: ee57 e9be 6fa2 493d 9292 aebe d7bc 98be
00000050: ffcf 153d b22c fabd 4b97 193e 65b4 d93e
00000060: b4e9 663d 1df8 693e 108c 80bd e9ee b0bd
00000070: bded 4c3e cb82 cd3d 1464 d63e 9d3a 963e
00000080: bb2b 833e 0415 33be 822f febe daf5 dbbd
00000090: f302 033d 5696 b6be 0a0b ad3e 138b 26be
000000a0: 9b4b 57bd 9bdb ffbe 4c48 c2be b45a 1a3e
000000b0: c662 943e bcf9 6f3e 744f c3be 7174 24be
000000c0: 334f 8ebd a3d0 3f3c 37a9 72be 8d2c 9e3d
000000d0: 2e62 a7bc db2b a9bd 7656 303e 802e 5cbe
000000e0: bc3b 55be 6ada 00be 9733 d8bd 955c 51bd
000000f0: e7c0 523e 4f41 99be dba5 75be 1aff c33d
00000100: 2581 96be 1790 b7bd e24f b0be ae66 1b3e
00000110: 4c75 1dbe 24e0 b7be ac54 9b3d 3a1f 283e
00000120: 9d13 b23e 1292 b73e 9b91 2dbd eb37 13bf
00000130: 800d f5be a71d 153f b86c 0fbe 0f26 9ebe
00000140: cb59 bebe e849 dcbe 2ecf 15be 2c62 e83e
00000150: 160c 4f3e f787 e53d 2731 56be 6f1a 1abf
00000160: cb63 293c b86c b23e 516e f63d 2416 51be
00000170: 1e7c 0dbe a575 b1be 2db7 133e 1781 4e3c
00000180: 9b61 a2be e234 08be 12d5 a9be 6d12 8d3e
00000190: b0d0 073e 24e9 52be c551 13bc 01d2 ecbd
000001a0: a43b 5fbe af63 863d 008a abbe e07a 8abe
000001b0: 6051 893c 9f32 cdbe 2cee f8bb 67f7 563d
000001c0: acff c3be 35e2 483e 974b 95be be66 973d
000001d0: 9ee3 babe f9ce 39be 57ef 18bd b444 33be
000001e0: ce90 a23e 9218 cfbe b068 103e 12a9 5ebd
000001f0: 3238 79be 9788 c43d 4123 8cbd 57f5 aabe
00000200: 065c 8a3e 2bbf bfbe 83c4 babe ac3d 193e
00000210: 6032 fe3e 2407 7abf b84e 0e3e cec8 a5bd
00000220: 6be1 403e 4752 543d 9d90 8f3e 3588 043e
00000230: f1c2 36bc 150b fcbe 85af 5dbe a587 c13e
00000240: b147 0b3f 25a2 e13e 40a7 d8bd 6584 12be
00000250: f52f c2bd 1836 bcbc c0cf b03e 90e3 c23e
00000260: 154e e83e 1d3c e53e 4f55 79be d59b c23e
00000270: 4cab 89be 97c1 96bd cb74 4cbd 59f7 983e
00000280: e9ec 63be 9d6d b3be 0746 df3d f904 12be
00000290: 6cd7 b0be 4175 763e bb20 703d bef8 c73e
000002a0: f22d 7cbe e376 133e 9e58 49be 2e3c 01be
000002b0: aa9d 623e 4e75 3fbe b5b4 bfbd 1292 dfbe
000002c0: b176 a93e fd0d dfbe 0c06 b23e dbf4 15be
000002d0: 3b3d cdbd 7c4f d5be 0def 73be d05d 0c3e
000002e0: 8155 6c3d 52ea 543e ed35 253d b4bf 813d
000002f0: 7bb6 25bf c485 f43d f2f7 e8be d16b 833e
00000300: d545 033e a5f1 e1be f762 3cbd 9123 e4be
00000310: d9b3 75be cd51 e03e d242 2dbf 9601 493e
00000320: 3cf1 e23d cc94 18be 4798 ac3d 75bf acbe
00000330: 6f69 55bd 3f9e 1b3e ee95 e4bd c3fb c5be
00000340: dd70 1f3d b16b 293e 0b1c e53d e299 ac3c
00000350: 0761 0e3e 9b5f c8be c387 d0be c595 07be
00000360: a42b 8abd b80b fc3e f6d9 e73e 2a4b ed3e
00000370: 4743 dbbe 1d6e 98bd b78d 543d 71e9 e43e
00000380: bab4 ec3d c29a bebe 94b7 7cbe 3834 d0be
00000390: d6ce 63bd 9ddb e53e f2c2 c03e f620 0b3a
000003a0: adff 87be bd40 36bf 5df9 fbbe 1663 e6bd
000003b0: 44d7 e93e e232 60bf b110 c4be 64af 17bf
000003c0: 9afe d33e 0e0e 48bf c9c5 cbbe e063 373d
000003d0: 0127 983d a45d fcbe 5a2d 6a3e ecc7 debe
000003e0: c8fe c63d 028b 503e 6529 cdbe 80be e5be
000003f0: 262d 97be 70f2 18be fb86 b23e 00de e3be
0.008439101 0.09449548 0.4444557 -0.06892278 0.2535494 -0.13735645 0.16141503 0.25350988
-0.13462837 0.3621198 0.28147557 -0.034567248 -0.48673758 0.23859653 0.038379855 -0.19364978
-0.45574898 0.049227174 -0.340962 -0.29831573 0.036575314 -0.12215556 0.1499912 0.42520443
0.05637522 0.22848554 -0.06276715 -0.086393185 0.20012565 0.100347124 0.4187323 0.29341593
0.256193 -0.17488486 -0.4964562 -0.10740252 0.031985234 -0.35661572 0.33797485 -0.1626399
-0.052562337 -0.49972233 -0.37945783 0.15073663 0.28981608 0.2343511 -0.38146555 -0.16060044
-0.069487 0.011707458 -0.23697363 0.07723341 -0.020432558 -0.08260318 0.17220482 -0.21502113
-0.20823568 -0.12583318 -0.10556715 -0.051113684 0.20581399 -0.2993264 -0.2398905 0.09570141
-0.29395404 -0.0896303 -0.34435946 0.15175888 -0.15376776 -0.35913193 0.07584509 0.16418162
0.3478059 0.3585363 -0.04237519 -0.575072 -0.47861862 0.5824837 -0.14006317 -0.3088841
-0.37177882 -0.43025136 -0.14629814 0.453874 0.20219454 0.11207574 -0.20917188 -0.60196584
0.010338734 0.3484857 0.1203276 -0.20418602 -0.13816878 -0.34660068 0.14425345 0.01260402
-0.31715092 -0.13301423 -0.33170372 0.2755312 0.13263202 -0.20596749 -0.008991663 -0.115634926
-0.21800095 0.06561982 -0.33503723 -0.2704687 0.016762435 -0.40077683 -0.0075967517 0.052482035
-0.38281 0.19617541 -0.29159233 0.073926434 -0.36501783 -0.1814536 -0.037337627 -0.17506677
0.31751102 -0.40448433 0.14102435 -0.054360457 -0.24337843 0.09596365 -0.06842662 -0.33390304
0.27023333 -0.37450537 -0.36478052 0.14964932 0.49647808 -0.97667146 0.13897216 -0.08094941
0.1883599 0.05183628 0.2804002 0.12942584 -0.011154876 -0.49227205 -0.21648987 0.377988
0.5440627 0.4406902 -0.105787754 -0.14308317 -0.09481803 -0.022975013 0.345335 0.3806424
0.45372072 0.44772425 -0.24348949 0.38009515 -0.26888502 -0.07361143 -0.04991607 0.2987621
-0.22258343 -0.35044566 0.109020285 -0.1425971 -0.34539354 0.24068166 0.058624964 0.39056963
-0.24626902 0.1440082 -0.19662711 -0.12620613 0.22130457 -0.18697092 -0.09360639 -0.4366613
0.33098367 -0.4356536 0.34770238 -0.14644186 -0.100214444 -0.41662204 -0.2382166 0.13707662
0.05769873 0.20792511 0.04033463 0.063353926 -0.6473157 0.11939576 -0.45501667 0.25668195
0.12819608 -0.44129673 -0.045992818 -0.44558385 -0.23994388 0.4381241 -0.67680085 0.19629511
0.11081168 -0.14900512 0.08427482 -0.3373982 -0.052102502 0.15197085 -0.11161409 -0.3866864
0.038925994 0.16544987 0.111869894 0.02106947 0.139042 -0.3913544 -0.40728578 -0.13240726
-0.06746605 0.4922769 0.45283478 0.46346408 -0.42824766 -0.074428774 0.051892962 0.44709352
0.11557908 -0.37227446 -0.24679404 -0.4066484 -0.055617176 0.44894114 0.3764873 0.0005307341
-0.26562253 -0.7119253 -0.49213687 -0.11249368 0.45672047 -0.8757764 -0.38293985 -0.59252
0.41405183 -0.78146446 -0.39799336 0.044772983 0.074293144 -0.49290192 0.22868863 -0.43511903
0.097165644 0.20365527 -0.40070644 -0.44871902 -0.29526633 -0.14936233 0.34868607 -0.4450531

linear1.bias f4 [256]
00000000: 76ef 81be 63a6 16be 90a0 dcbe 8cff dcbc
00000010: 54d3 babe d0d8 abbe a437 53bd 9934 323e
00000020: bb2a 85be fc30 fbbd 21d8 733c 67f0 4fbe
00000030: d1b5 5d3e f75c a9be 8399 91be f8f1 56bd
00000040: 6bae 06be 30f3 82be 7330 8e3e 316d fdbd
00000050: 03f7 a6bd f73b c33e 835e 113e 9207 853e
00000060: f54f 5d3d e13f 7fbe f638 b83e b8b3 e33e
00000070: e56a 5abd 8a3e ad3e 6b39 3ebe c8a7 31be
00000080: 3f19 b33e 2dac 86bd 519f 003d c76d 873d
00000090: 2d16 8e3d f497 7b3e b2ae 69be 5fc9 3f3e
000000a0: 5fa0 5dbe 0ec1 e93e 5dd9 2bbe 537e a73e
000000b0: 83ef 73be b86e 7d3d 9e2a b3be 2557 8abc
000000c0: 2dad 76bb 39cf b8be 1978 04be 9f07 cabe
000000d0: 0b96 923d 553d 74be 6280 ce3c 5033 0b3f
000000e0: ad80 1dbe 0a38 69bd 675b 80be 43e5 833e
000000f0: 20ce 44be fe56 ad3d e7bf 94bd 92a9 dfbe
00000100: 2254 20be a0a0 e2bd 3529 b33b 49f0 4abe
00000110: c1da bcbe 7d3c ddbd 5e2a 27bd a859 30be
00000120: 26d8 7d3d 0f86 70be 23fc 84be ea67 b4bd
00000130: 728f bb3d 09d6 f8bd 16a6 8ebd d2ac d1bc
00000140: 56b5 483e 07ad 49be 3f7d ccbe ad1d 4cbe
00000150: e419 98be 6d5b fb3a d3d0 723d 40c5 a6be
00000160: 868b 88be 6106 24bd 6856 d13c 9df2 acbe
00000170: 4a0d 6a3e c52e 54bd 264a 4abe 308b 3abe
00000180: 3130 45be 4b6b d4bd 96ac 93be 3b4b 1fbe
00000190: 2107 7a3e fd05 5abe 37d1 96be e0b3 b4be
000001a0: e4e9 413e 7c20 be3d 540e 823e ae13 5ebe
000001b0: ec88 74be 9631 9abd a9ba b1be e96e ba3e
000001c0: c4be 893e e0f5 73bd 92a2 bebb 094e 0bbf
000001d0: 9dca 71be 9e44 88be fb3b 2ebd 2046 ae3d
000001e0: 4f96 a2be e220 793e eb83 83be f0c4 77be
000001f0: e29e af3d c968 d0be 40f4 b0be 3580 8cbe
00000200: 3cd1 0abe 2de5 8ebe 4f35 14be f906 e9be
00000210: 2345 ad3e daa8 28be 0b65 963e 4fb4 103e
00000220: d665 a6be bce7 4fbc ffda 9a3e 12c6 62be
00000230: 4d20 7ebe 4e44 8fbc 038a 6e3d bcb8 81be
00000240: 3470 e13d 321b 9d3e de80 95be 837a dabe
00000250: 20f7 d53d 2f57 2c3e f3bd c1be aafb 053f
00000260: 02b5 28be eb76 3c3d 9012 49be f012 07be
00000270: c354 b3be f4cb 49be 42c2 c33d 6d2d af3d
00000280: 371f 043e 4d78 083f 8154 81be d35a d6bd
00000290: d594 cabd 7f7a aebe cf12 0e3f a087 96be
000002a0: a47e bc3e 9884 eebe 5c42 043f 4b85 aebd
000002b0: 8e2d b0be 24d8 f2bd 70d8 c33b 5dc4 8f3e
000002c0: 8e42 90be 5a0e 3fbe 6475 2fbe 5378 c83e
000002d0: 9ab0 3fbe 0bc9 82be ede9 1dbe 57f1 cdbe
000002e0: 0c13 06be 1055 0ebd 1f39 b43e b4b7 5bbe
000002f0: c92d 07be bfcf 28be e700 163d 7c70 bfbc
00000300: a974 db3c 25aa 74be 8500 16be c7e7 88be
00000310: b58f ecbd 573f f2bb 1c57 58be 2566 21be
00000320: 5064 e53d 3f2c da3d d83b 743c d09d b6bd
00000330: c60d 473d 61ba 8c3d f84a 38bd 8e60 c3be
00000340: 85c0 4dbe dbe6 8dbe 9ba6 a4be 1936 67be
00000350: 4fb5 2f3e 324f 4b3f 1b89 f83e 0489 183e
00000360: 9fae e3bd f6f9 58be 4008 9cbe ea90 84be
00000370: 5569 44be ba08 34be 2da4 cabe 0f3f b83c
00000380: 3609 27be 0be5 bfbc d03a f33d 3f44 90be
00000390: bff1 5dbe 233a c2be 671c 543d 58f4 ccbd
000003a0: 97b9 44be d7a4 a3be 50f9 84be 070b b6be
000003b0: d196 e7bd c063 d2be 7fa5 523d 7f8f cfbb
000003c0: c5da 65be bb77 993d 357a 1bbe 760e 123f
000003d0: b9b2 56bd 4391 87be e7a4 72be fa59 cfbe
000003e0: 8d39 75be 678a 4d3e 58b6 a0be 9480 c23e
000003f0: 5cad b1be 7520 bf3e 89b3 9cbe a3a7 b4be
-0.25378007 -0.14711909 -0.4309125 -0.026977323 -0.36489356 -0.33563852 -0.051566735 0.17402877
-0.26009163 -0.122652024 0.014883072 -0.2030655 0.21651389 -0.3307874 -0.28437433 -0.052476853
-0.13152473 -0.25576162 0.2777134 -0.12374342 -0.081525825 0.38131687 0.1419621 0.25982338
0.05403133 -0.24926712 0.35980958 0.44473052 -0.0533246 0.33836776 -0.1857659 -0.1734916
0.349802 -0.06575809 0.031401936 0.06612735 0.069378234 0.24569684 -0.22820547 0.1872916
-0.21643208 0.45655102 -0.16782136 0.32713565 -0.23821835 0.061873168 -0.34993452 -0.016887257
-0.0037639842 -0.36095598 -0.12936439 -0.3945894 0.07157525 -0.23851521 0.025207702 0.5437517
-0.15381117 -0.05693821 -0.25069734 0.2576085 -0.19219255 0.08463858 -0.07263165 -0.4368406
-0.15657094 -0.11065793 0.0054675587 -0.19818224 -0.36885646 -0.10802553 -0.04081189 -0.17221701
0.061973713 -0.2348864 -0.25973615 -0.088088825 0.091582194 -0.12150199 -0.06965272 -0.025595102
0.19600424 -0.19694911 -0.39939305 -0.19933195 -0.29707253 0.0019177027 0.05928118 -0.32572365
-0.26668948 -0.040045146 0.025553897 -0.3377885 0.22856632 -0.051802415 -0.19754848 -0.18217158
-0.19256665 -0.10372027 -0.2884261 -0.15556042 0.24416782 -0.21291347 -0.29456493 -0.35293484
0.18936878 0.0928354 0.25401556 -0.21687195 -0.23880357 -0.07528989 -0.34712723 0.36412743
0.26903355 -0.059560657 -0.0058177197 -0.5441595 -0.23612447 -0.2661485 -0.04253767 0.08509469
-0.317553 0.2432895 -0.25686583 -0.2419622 0.08575226 -0.40704945 -0.34561348 -0.27441564
-0.13556379 -0.27909222 -0.1447346 -0.45513132 0.3384181 -0.16470662 0.29373965 0.14131282
-0.3249957 -0.012689527 0.30245206 -0.2214587 -0.2481701 -0.017488625 0.058237087 -0.25336254
0.11007729 0.3068481 -0.2919988 -0.42671594 0.10447526 0.16830133 -0.37840232 0.52337134
-0.16475299 0.046011847 -0.19635987 -0.13190818 -0.35025606 -0.19706708 0.09558536 0.08553586
0.12902533 0.53308564 -0.25259784 -0.10466542 -0.09891669 -0.34077832 0.5549745 -0.2940035
0.3681537 -0.46585536 0.51663756 -0.08521517 -0.34409755 -0.11857632 0.005976729 0.280795
-0.28175777 -0.18657818 -0.17134625 0.391543 -0.18719712 -0.2554401 -0.15421267 -0.4022319
-0.13093203 -0.03474909 0.3519983 -0.21456796 -0.1320106 -0.16485499 0.036621954 -0.023369066
0.026789026 -0.2389303 -0.14648636 -0.26739332 -0.115508474 -0.0073928046 -0.2112698 -0.15761621
0.11200774 0.106529705 0.014906846 -0.08916819 0.04859712 0.068714865 -0.04499337 -0.38159603
-0.20092972 -0.2771519 -0.3215836 -0.2257923 0.17159007 0.7941772 0.48542103 0.14896017
-0.11117291 -0.21189103 -0.30475044 -0.2589181 -0.19180806 -0.17581454 -0.3957838 0.022491006
-0.16312107 -0.023424646 0.11876452 -0.28177068 -0.2167425 -0.3793498 0.0517849 -0.10007542
-0.19211422 -0.319617 -0.2597146 -0.35555288 -0.11308063 -0.41091728 0.05142736 -0.0063342447
-0.22446735 0.0749354 -0.15183337 0.57053316 -0.052416537 -0.26478013 -0.23695718 -0.40498334
-0.23947735 0.20072328 -0.31389117 0.37988722 -0.34702575 0.3732945 -0.30605724 -0.35284147

linear2.weight f4 [3, 256]
00000000: 00cb 44bd 391c 7c3d fb2c edbd c756 823d
00000010: ce02 fa3d 6ce3 82bc 4c60 a7be 09ec b3be
00000020: b08b 8bbc d5ac a93c 88fc bbbc 1ddf d43c
00000030: 4b8c 393e 9e51 07be 2bc3 50be 54b4 37be
00000040: e431 5bbd 8e16 9d3d c102 c03d 7b0b 5fbe
00000050: 3d1f 9abe e125 c03e f53a d8bd 2c2b 723e
00000060: e281 bebe e071 233d c785 fe3e 8057 7e3e
00000070: de02 e23e ed9d f23d 36b3 e6bd 5bb9 23bc
00000080: 744c 293e 33b5 96be 8b95 dd3d dca6 893c
00000090: 251c 723e b99a cd3e fa93 a33c 250e fd3e
000000a0: 27a9 30bd 3779 603e e601 aabe f663 373e
000000b0: a640 2ebd ebda d93e 45b0 21bc 91f7 78bd
000000c0: 7b68 a4bd 8e21 97be 3d55 1cbe a1a7 bb3c
000000d0: 60e1 b73e 8ec7 bc3c 482c 9d3d 2b35 c03e
000000e0: 3226 e0bd da30 a33e 69be bbbd bfba e03e
000000f0: 91ac 2dbd e305 0e3f 5198 21be 9347 83be
00000100: 88a7 8bbe 9cc5 83be 1c11 773e 0bc5 30bd
00000110: edd4 b7bd e6af 1cbe 3463 12bd 9b2a 6fbe
00000120: 8c85 803e e3bd bebe 1345 aebd 039b ec3d
00000130: af8c df3c 0823 34be b403 3a3e 84e0 9f3e
00000140: 31db e33d 540e dabd 33ae d63a 4e12 0cbd
00000150: 5032 2a3c cd2c e03d 760b 283e 22a5 c0bc
00000160: 1dcb 25be 6f8d 87be 63d2 d33e 2428 ffbd
00000170: 67bd ad3e bc8e 123b c4cf 50be 2c66 1cbe
00000180: 448a b03a ea5e 823e f1ef f83c 8f42 eb3c
00000190: a0aa b23e d5de 2dbf 5065 95bd ad0b e93c
000001a0: 61b2 d63e 5369 e53d 702c b53e 3318 623d
000001b0: 5877 8a3e 12e5 3dbe 996e a3bd f5a0 dd3d
000001c0: a34b 023f 3c76 47be 49a5 e93d de34 02bd
000001d0: bf07 7bbd 8b29 463d 0bd8 cebd bb1a 01bd
000001e0: d819 2cbb e080 dc3e 96cc 9bbc 45c1 ce3c
000001f0: 5c22 8f3e 4e2c d83c f7c5 51bb c509 88bd
00000200: 335a 853c 5a80 e3bd 148e 0bbd ff2c b43b
00000210: 5cd1 883e aa00 f2bb aa27 233f ed4f de3e
00000220: a9b2 343d d0dc 5abd 63cd 8b3e b52b cbbe
00000230: ce9d 823c 9819 d2bd 6985 9f3e 8873 283e
00000240: 1b1b 7dbe 4c97 363e 50af 55bd 34bb b5be
00000250: 4358 c43e 99f5 073e 70d1 4cbe 7e93 d23e
00000260: 55c2 3dbd fcee 2b3e 0d0a d6be 4a35 fc3c
00000270: 8baf d0bd 747d 103b 105a 2a3e bb09 c03e
00000280: 2c87 fa3c 06ea e03e ba55 27bd e209 f8be
00000290: 92d7 8fbe 39a7 7c3d 36b0 323e af10 febd
000002a0: f9f7 0e3e b24d e3ba c584 903e 5375 0b3e
000002b0: cc35 fcbc 919f 9b3e 6cf7 6bbb 0278 f73e
000002c0: 8093 32bd 70cc f4bd 181c 2abd a2ff db3d
000002d0: 0e4a babd 4291 c7bc 7559 693c d16e 79be
000002e0: 035c 1dbe 04bc 1b3f e155 903e 0240 893d
000002f0: 9f82 91bc 71f9 48be 0789 093d 01ac 543b
00000300: ab96 173e b1da 92bd b4db adbe 1caf 11be
00000310: d54a 44bc 6abd 1abe 9cfd b5bc 2724 a4bc
00000320: 6b41 26bc 2d0b a7be 7f78 813d 5a34 1f3f
00000330: fd80 ff3d 8b13 4cbd e344 65bd 3fdb dfbe
00000340: 76cc 683e 305b a13c 334b 1bbd 39e4 b83c
00000350: 2faf 8d3d 49f3 093f 9ca2 663e 2aae ca3e
00000360: 0fc1 0e3b e268 5ebd e727 ad3d b900 c03e
00000370: 3c2e 0fbd f94f 2bbe 7717 343d 15ac 223d
00000380: 9020 593b 637c 273e 0b88 d6be bda5 97bd
00000390: e0b0 37bf c85a 82bd 9314 bd3e ee2e 6abe
000003a0: 7c36 2cbe d926 e4be 4b07 04be 09b6 4ebb
000003b0: 03be db3e b41b 973c 1f5d 64be 04f4 d8be
000003c0: c46f 89bd baf0 a93e ab4a cd3c 5072 dd3e
000003d0: f107 57bc 8cb2 9fbe 899d 9fbd fff1 d1bd
000003e0: ff12 eebd de3c 803e e10e 223f eed0 573e
000003f0: 5592 9cbd 0ca6 8e3e cc19 4cbd 169a 60be
-0.04804516 0.061550353 -0.11580845 0.06364208 0.12207566 -0.015977584 -0.32690656 -0.35141018
-0.017034382 0.020712296 -0.022947565 0.025985295 0.18119924 -0.13214728 -0.2038695 -0.17939883
-0.053514376 0.076703176 0.09375525 -0.21781723 -0.30101958 0.375289 -0.1055812 0.23649281
-0.37208468 0.03990352 0.4971144 0.24838066 0.44142812 0.11846528 -0.112646505 -0.009992923
0.16533071 -0.2943512 0.10819539 0.016803198 0.23643549 0.40157107 0.019968022 0.49424854
-0.043130066 0.2192124 -0.33204573 0.17909226 -0.042542122 0.42549834 -0.009868686 -0.060782973
-0.080277406 -0.29517788 -0.15266891 0.02290708 0.35914135 0.023044374 0.076744616 0.37540564
-0.10944785 0.31873208 -0.09167177 0.43892476 -0.0424009 0.5547773 -0.1578076 -0.25640544
-0.27276254 -0.257367 0.2412762 -0.043156665 -0.08976159 -0.15301475 -0.03573914 -0.23356096
0.25101888 -0.37254247 -0.085092686 0.11553004 0.027288763 -0.17591488 0.18165475 0.3122598
0.11125792 -0.10647264 0.001637882 -0.034197144 0.010387972 0.10946045 0.16410622 -0.023516241
-0.16190763 -0.26475093 0.4137145 -0.12458828 0.33933565 0.0022362908 -0.20391756 -0.1527335
0.0013468941 0.2546304 0.03038785 0.028718261 0.34895802 -0.6791814 -0.072947145 0.02844795
0.41932967 0.112017296 0.35385466 0.05519886 0.27044177 -0.18544415 -0.07980079 0.10821716
0.5089666 -0.19478697 0.11408479 -0.0317887 -0.061286684 0.048379462 -0.10099801 -0.031519633
-0.0026260521 0.43067074 -0.019018453 0.025238642 0.27955902 0.026388314 -0.0032008865 -0.066424884
0.016278362 -0.111084655 -0.034071043 0.005498528 0.2672223 -0.007385333 0.637324 0.43420354
0.044115696 -0.05343324 0.27305135 -0.39681783 0.015944388 -0.10258788 0.3115647 0.16450322
-0.24717371 0.17831153 -0.052169144 -0.35494387 0.38348588 0.13277282 -0.20001769 0.41128153
-0.046327908 0.16790384 -0.41804543 0.030787129 -0.10189732 0.0022047432 0.16635919 0.37507424
0.030582033 0.43928546 -0.04085324 -0.4844504 -0.28094155 0.061682913 0.17450032 -0.12405526
0.13961782 -0.0017341881 0.28226295 0.13618974 -0.030787371 0.30395177 -0.003600563 0.48333746
-0.0435977 -0.11953056 -0.0415307 0.107421175 -0.09096156 -0.024361257 0.01424252 -0.2435868
-0.15367131 0.60833764 0.2819052 0.06701662 -0.01776248 -0.19626404 0.033577945 0.0032451155
0.14803569 -0.07170618 -0.33956683 -0.14226955 -0.011980732 -0.15111318 -0.022215657 -0.02003677
-0.010147433 -0.32625714 0.06321811 0.6218926 0.124757744 -0.049823325 -0.0559739 -0.4372196
0.22734246 0.019696802 -0.037913512 0.022569763 0.06918179 0.5388685 0.22522968 0.39586002
0.0021782552 -0.054299243 0.084548764 0.3750055 -0.034956202 -0.16729726 0.04396769 0.03971489
0.003313098 0.16356044 -0.41900668 -0.07404659 -0.71754265 -0.063649714 0.3692976 -0.22869465
-0.16817659 -0.44560888 -0.12893407 -0.0031541607 0.42918405 0.018445827 -0.22301148 -0.4237367
-0.06710771 0.33191472 0.025060019 0.43251276 -0.013124452 -0.31190908 -0.07793719 -0.10251235
-0.11624717 0.25046438 0.63303953 0.21075794 -0.07645098 0.2786106 -0.04982929 -0.21933779

linear2.bias f4 [3]
00000000: 7adf b83e 8634 52bd 0d2e 973d
0.36108 -0.05131962 0.0738183
