src/model/model.pth (torch, 17216 bytes, 4 tensors)

linear1.weight f4 [256, 11]
0.10394829 -0.0069119395 0.265519 0.16514805 -0.0804191 0.20243894 -0.067864075 0.134832
-0.18503334 -0.042869158 0.024424717 0.20314737 -0.21814932 0.25972828 0.08484465 0.23040448
0.0020543602 0.21609238 0.14712006 -0.119763635 -0.21722253 -0.17230809 -0.103067234 0.23383033
-0.19174752 0.23682731 -0.16643538 0.028897068 -0.09968588 -0.29307318 -0.003147791 -0.010914417
0.15644489 -0.027561426 -0.17177682 0.2643404 -0.2737478 -0.27315885 0.13234177 0.18212152
0.10114903 -0.081278406 -0.07531624 -0.103854865 0.26817974 -0.02774343 0.21110822 -0.007320956
0.16486137 0.047105066 -0.15401304 -0.040208194 -0.021409722 -0.019674992 -0.035299804 0.20820794
-0.13168626 -0.16115348 0.21794681 0.18131575 -0.15282199 0.06821863 0.08931683 0.06795911
-0.053804915 0.30091044 -0.112021625 -0.2519441 0.26900265 0.07118828 -0.054880537 0.10968251
0.027712887 0.24881445 0.06356267 0.019839728 0.2387773 0.29461113 0.069891974 0.17660232
-0.025745418 -0.20772395 0.16783687 0.18753497 0.23879926 0.16117775 0.14128755 -0.24511732
0.19659194 -0.010489879 0.005262947 -0.11058572 0.09456679 0.20174125 -0.29356232 0.081439205
-0.084826425 -0.097156234 -0.1193079 0.2366363 0.19574863 0.21232349 -0.14282912 0.025844868
0.000806524 0.008193632 0.07667215 -0.09812919 0.10533415 0.2629817 0.03872441 -0.0041390266
-0.10708703 -0.1575106 -0.12068886 0.24485284 -0.024939729 0.035779666 0.15251091 -0.19239078
0.22081865 -0.119558126 0.065092616 0.17506978 0.24648005 -0.21499756 0.12451411 0.08144453
0.19175196 -0.021874808 0.0748278 -0.08274216 -0.06405613 0.13007914 -0.0014151507 0.21741475
-0.12214371 0.0021121688 -0.03074164 0.15088114 -0.25667536 -0.3129076 -0.12278813 -0.06957043
-0.2037031 -0.20497215 0.22514385 0.21989295 0.054541413 -0.14188439 0.23462567 -0.024739008
0.01552986 -0.18032573 0.25547007 -0.25910702 0.015925406 0.07938059 -0.2614563 0.16418038
0.2028966 -0.08457441 0.100874476 -0.08679624 0.24647358 -0.055006087 0.17739218 0.062465668
0.18409057 -0.13368748 -0.27249622 -0.29745334 -0.14052258 0.146476 -0.059424087 -0.23796396
-0.15940566 0.17595525 0.0934148 -0.19580336 0.16191387 -0.18982269 -0.28009576 0.20762646
-0.104932554 0.18414122 -0.16298704 -0.0721626 -0.07388612 0.22864902 0.066852055 0.22476174
-0.07244894 0.017161068 -0.08260808 -0.13893148 0.18796656 -0.14088464 -0.042353455 -0.17434983
0.16621119 0.16460244 -0.10571314 -0.26245168 0.24757126 0.05012336 0.23855942 0.30660805
-0.06918889 0.11037765 -0.1752562 0.17780127 -0.34449363 -0.0420303 0.15276742 -0.17425506
0.18875217 -0.2605269 0.06039168 -0.23497643 0.044845995 -0.2656519 0.13294896 0.019620107
0.20711951 0.2048524 -0.19366412 -0.24220692 -0.050326083 -0.09398212 0.17945334 -0.022354791
0.05367347 0.20853348 -0.03313829 0.14709046 0.2685112 0.042964842 -0.038984016 -0.06775356
-0.1264821 -0.16840534 0.18511645 -0.045006074 -0.10880081 0.18833664 0.089103945 0.21574093
0.24685688 0.22066037 0.05801767 0.12741125 0.10479608 0.18718033 0.25316706 -0.20809399
00000000: d7e2 d43d 8d7d e2bb 1bf2 873e 921c 293e
00000010: c5b2 a4bd 274c 4f3e 52fc 8abd 6611 0a3e
00000020: 6179 3dbe 9297 2fbd 5816 c83c dd05 503e
00000030: 8962 5fbe 1bfb 843e 08c3 ad3d 27ef 6b3e
00000040: 72a2 063b 5247 5d3e a4a6 163e a346 f5bd
00000050: 956f 5ebe 8871 30be ea14 d3bd 3871 6f3e
00000060: 7659 44be dc82 723e 096e 2abe 8bb9 ec3c
00000070: 1c28 ccbd b00d 96be 2b4b 4ebb 62d2 32bc
00000080: 1733 203e 80c8 e1bc 43e6 2fbe a057 873e
00000090: ac28 8cbe 7adb 8bbe 9a84 073e 107e 3a3e
000000a0: 3927 cf3d 4b75 a6bd 673f 9abd dcb1 d4bd
000000b0: db4e 893e 3146 e3bc c12c 583e a1e4 efbb
000000c0: 6bd1 283e 3ef1 403d 98b5 1dbe 59b1 24bd
000000d0: 7163 afbc 732d a1bc 8796 10bd 7634 553e
000000e0: c3d8 06be 6b05 25be 732d 5f3e d6aa 393e
000000f0: 5e7d 1cbe 36b6 8b3d beeb b63d 252e 8b3d
00000100: 8b62 5cbd ef10 9a3e 986b e5bd d1fe 80be
00000110: b7ba 893e 29cb 913d 6aca 60bd 39a1 e03d
00000120: 2306 e33c 37c9 7e3e 252d 823d ed86 a23c
00000130: 0982 743e 45d7 963e 8623 8f3d 3dd7 343e
00000140: 0ee8 d2bc 96b5 54be 6edd 2b3e 2b09 403e
00000150: cb87 743e c80b 253e afad 103e 0900 7bbe
00000160: 664f 493e bedd 2bbc cd74 ac3b c47a e2bd
00000170: 3cac c13d 4295 4e3e cd4d 96be 99c9 a63d
00000180: 7ab9 adbd d9f9 c6bd b357 f4bd c950 723e
00000190: 5472 483e 546b 593e cc41 12be 9eb8 d33c
000001a0: e96c 533a 953e 063c 4a06 9d3d f5f7 c8bd
000001b0: 6eb9 d73d 8aa5 863e 7d9d 1e3d aca0 87bb
000001c0: 7250 dbbd 754a 21be b92b f7bd b4ba 7a3e
000001d0: 674e ccbc b38d 123d d22b 1c3e 1702 45be
000001e0: 491e 623e e4da f4bd 474f 853d 7e45 333e
000001f0: 4465 7c3e 5228 5cbe 4101 ff3d 64cc a63d
00000200: a05a 443e cc32 b3bc 513f 993d b974 a9bd
00000210: dc2f 83bd 7733 053e 947c b9ba f9a1 5e3e
00000220: 7b26 fabd 506c 0a3b e4d5 fbbc 9680 1a3e
00000230: f46a 83be 6d35 a0be 5878 fbbd f17a 8ebd
00000240: 8c97 50be 38e4 51be 1c8c 663e 9e2b 613e
00000250: d166 5f3d 244a 11be b641 703e 76a9 cabc
00000260: f470 7e3c 4fa7 38be f9cc 823e ada9 84be
00000270: ff75 823c 4a92 a23d 9add 85be e71e 283e
00000280: 20c4 4f3e 5935 adbd 4797 ce3d 3ac2 b1bd
00000290: 9263 7c3e 104e 61bd 4ca6 353e 00dc 7f3d
000002a0: 3d82 3c3e 5fe5 08be a084 8bbe ce4b 98be
000002b0: 27e5 0fbe cefd 153e ac66 73bd d3ac 73be
000002c0: 3d3b 23be 9d2d 343e 4250 bf3d ad80 48be
000002d0: c0cc 253e e160 42be b668 8fbe 089c 543e
000002e0: e1e6 d6bd 848f 3c3e 13e6 26be fcc9 93bd
000002f0: 9b51 97bd f822 6a3e bbe9 883d f127 663e
00000300: 1c60 94bd 5e95 8c3c 6d2e a9bd 0e44 0ebe
00000310: 4e7a 403e 1044 10be d17a 2dbd c388 32be
00000320: 4433 2a3e 8b8d 283e 2180 d8bd 1160 86be
00000330: 5283 7d3e 274e 4d3d ec48 743e bbfb 9c3e
00000340: e8b2 8dbd ad0d e23d 5c76 33be 8911 363e
00000350: 7861 b0be f727 2cbd 106f 1c3e eb6f 32be
00000360: 4048 413e c863 85be 445d 773d a99d 70be
00000370: 6fb0 373d 8703 88be c623 083e 59ba a03c
00000380: 2317 543e d4c4 513e e34f 46be 1705 78be
00000390: b922 4ebd b379 c0bd 9ec2 373e 6521 b7bc
000003a0: b6d8 5b3d cd89 553e 04bc 07bd e29e 163e
000003b0: 4d7a 893e e7fb 2f3d b4ad 1fbd 61c2 8abd
000003c0: 8684 01be 7372 2cbe 2b8f 3d3e 4a58 38bd
000003d0: f6d2 debd 52db 403e 217c b63d 31eb 5c3e
000003e0: 0dc8 7c3e cbf4 613e f0a3 6d3d 1878 023e
000003f0: 549f d63d 33ac 3f3e 1d9f 813e 9716 55be

linear1.bias f4 [256]
0.1405336 -0.13464725 0.26142523 0.17806417 -0.26267385 0.23882747 0.24786225 -0.0009966543
-0.12431726 0.27797747 -0.04527757 -0.133427 0.27253374 0.14860797 0.03548076 0.105615236
0.2852897 -0.1405493 0.09228547 0.14932287 -0.35120472 -0.28644672 0.23379806 0.14131449
-0.043704137 0.23975806 0.19328348 -0.012748891 0.14408803 -0.18368368 0.09684956 0.028258359
0.04638507 0.24185944 -0.19036357 -0.042095263 0.21400334 0.07183634 -0.056225825 -0.088113375
0.31255385 -0.26769215 0.07538237 0.098216034 -0.05112504 0.27788576 -0.045121863 0.18385346
-0.105020046 -0.2618087 0.034088742 -0.014864696 -0.07331921 0.05433184 -0.008459944 0.09428317
0.10922926 0.31349367 -0.18289979 0.2954982 0.016518224 0.14201815 0.039397668 0.32412663
-0.26584235 0.09775079 0.11925822 0.25872138 -0.30308554 0.31781867 0.00047665165 0.27924693
0.07932333 -0.21730995 -0.16742626 0.09262497 -0.29048228 -0.111582115 0.085400574 0.002290173
-0.15798308 -0.26465872 -0.18337648 0.26510993 -0.066011496 -0.24198648 -0.32290936 0.19485681
0.23434724 -0.016599407 0.2561961 -0.056677267 0.28522897 -0.060332663 0.23795082 -0.14533558
0.111188985 -0.15803905 -0.058263857 0.25421587 0.2240433 -0.15849277 0.04071115 -0.09485718
-0.1797652 -0.20224999 -0.26823464 0.06037226 0.069828264 -0.22389288 -0.22040568 -0.083959185
-0.18960369 -0.08743405 -0.0040194537 0.07492872 0.17112826 -0.051351044 0.19060396 0.2705892
0.119048536 -0.03543897 0.14385338 0.040307052 -0.11474771 0.20198324 -0.05374761 0.02009952
0.1886825 0.05203563 0.13930117 -0.22293471 -0.25331342 0.21448559 0.009456356 -0.18956868
-0.3163331 -0.2632119 0.16765101 0.20029774 0.16958728 0.120710835 0.03492751 0.18269575
-0.03367963 0.07505898 -0.100366354 -0.22497152 0.23015514 0.23761706 -0.12056288 -0.27433392
0.013690197 -0.116812065 0.042724144 0.24491067 0.09728036 -0.27252164 -0.1725889 0.12133647
0.07121506 -0.27259812 -0.059927937 -0.05631995 0.15916255 0.056464255 0.1802829 -0.22790495
-0.21530238 -0.16127728 -0.22511943 0.02265025 0.06289314 -0.08848594 0.18928726 -0.034080327
-0.05233842 0.32131973 0.0917287 0.19142476 -0.18577226 -0.019330064 0.04279829 0.08440646
-0.124653414 -0.09075032 -0.31579942 -0.0136320675 -0.10060394 -0.123064175 0.107572414 0.24173032
-0.17362976 -0.36583343 -0.27194676 -0.030226702 -0.1315561 0.19036536 -0.22346082 0.2085975
-0.17958277 -0.18995492 -0.28171048 0.25419253 0.11050115 0.11457049 0.1838477 0.18921617
0.26334402 0.02031765 -0.07062327 0.09221775 0.06865565 -0.16437104 0.13109517 -0.1833905
0.20021495 0.14313926 -0.24286407 0.021937437 -0.12924246 -0.10212643 -0.050323002 0.21670952
0.15998977 -0.122832686 0.19200984 -0.16774583 -0.27208441 0.103256844 -0.039474495 -0.15368125
0.2580631 -0.25426877 0.25426596 -0.06843692 0.33338848 -0.10205484 0.31793308 0.2126328
-0.22004324 -0.07840287 0.1564694 0.26061603 -0.33743086 -0.33273703 -0.018169833 -0.23614424
-0.13795677 0.23283647 -0.009758458 0.06410913 -0.08875934 -0.020146035 -0.19840415 0.177801
00000000: 0ae8 0f3e f8e0 09be 87d9 853e 7456 363e
00000010: 307d 86be 308f 743e 9acf 7d3e 2ba2 82ba
00000020: 0c9a febd 1053 8e3e f974 39bd 16a1 08be
00000030: 8b89 8b3e b02c 183e 4654 113d cd4c d83d
00000040: 7e11 923e 28ec 0fbe 2a00 bd3d 18e8 183e
00000050: 1bd1 b3be 25a9 92be c268 6f3e bfb4 103e
00000060: 1c03 33bd 2383 753e 1bec 453e b9e0 50bc
00000070: d08b 133e 9317 3cbe 1059 c63d 137e e73c
00000080: 45fe 3d3d 00aa 773e abee 42be 156c 2cbd
00000090: b123 5b3e ee1e 933d 0d4d 66bd c974 b4bd
000000a0: 0f07 a03e f20e 89be 1262 9a3d 7d25 c93d
000000b0: 7d68 51bd 0b47 8e3e b4d1 38bd 1544 3c3e
000000c0: c014 d7bd ca0b 86be a3a0 0b3d 0e8b 73bc
000000d0: 6228 96bd 108b 5e3d 949b 0abc 8917 c13d
000000e0: 97b3 df3d 3e82 a03e 154a 3bbe 8a4b 973e
000000f0: 3a51 873c 356d 113e 735f 213d edf3 a53e
00000100: 7d1c 88be 9131 c83d a73d f43d 2177 843e
00000110: 072e 9bbe 21b9 a23e 1ae7 f939 74f9 8e3e
00000120: 4574 a23d 8086 5ebe ca71 2bbe 29b2 bd3d
00000130: 18ba 94be 2a85 e4bd 7fe6 ae3d ba16 163b
00000140: 51c6 21be 5981 87be 0bc7 3bbe 7dbc 873e
00000150: 0931 87bd 4ecb 77be 6054 a5be 8b88 473e
00000160: b9f8 6f3e 7bfb 87bc 232c 833e 6c26 68bd
00000170: 8809 923e 621f 77bd 61a9 733e dad2 14be
00000180: 0db7 e33d fdd4 21be 15a6 6ebd 9528 823e
00000190: 9b6b 653e ee4b 22be bcc0 263d 7b44 c2bd
000001a0: 5e14 38be 9f1a 4fbe 0d56 89be e748 773d
000001b0: 1f02 8f3d 2d44 65be 07b2 61be cbf2 abbd
000001c0: 7827 42be a010 b3bd 9fb5 83bb 3b74 993d
000001d0: 3f3c 2f3e 7955 52bd af2d 433e ab8a 8a3e
000001e0: b8cf f33d 7428 11bd 4d4e 133e 0219 253d
000001f0: d900 ebbd b2d4 4e3e 7426 5cbd c0a7 a43c
00000200: fc35 413e 5023 553d f7a4 0e3e ff48 64be
00000210: 4cb2 81be 1ca2 5b3e d5ee 1a3c 4b1e 42be
00000220: 69f6 a1be b6c3 86be b5ac 2b3e da1a 4d3e
00000230: 4aa8 2d3e 3e37 f73d 2610 0f3d 9814 3b3e
00000240: a7f3 09bd 86b8 993d e08c cdbd ef5e 66be
00000250: caad 6b3e e351 733e ace9 f6bd 7f75 8cbe
00000260: d94c 603c 2a3b efbd 83ff 2e3d ddc9 7a3e
00000270: ed3a c73d f587 8bbe 25bb 30be 417f f83d
00000280: 34d9 913d fb91 8bbe ff76 75bd bfaf 66bd
00000290: 82fb 223e 1047 673d 159c 383e ea5f 69be
000002a0: 3a78 5cbe df25 25be b585 66be 048d b93c
000002b0: 1ece 803d 1e38 b5bd 85d4 413e d097 0bbd
000002c0: d060 56bd 0584 a43e 42dc bb3d da04 443e
000002d0: 153b 3ebe 155a 9ebc 424d 2f3d 4bdd ac3d
000002e0: 4a4a ffbd 4edb b9bd 76b0 a1be 0959 5fbc
000002f0: 7009 cebd 1209 fcbd ed4e dc3d 2788 773e
00000300: 00cc 31be 854e bbbe 9b3c 8bbe fd9d f7bc
00000310: a4b6 06be 23ef 423e ead2 64be 959a 553e
00000320: 8ce4 37be 8b83 42be 5b3c 90be 8625 823e
00000330: 6d4e e23d efa3 ea3d 9242 3c3e e2c1 413e
00000340: 07d5 863e 3371 a63c efa2 90bd a9dc bc3d
00000350: 559b 8c3d e250 28be d03d 063e b8ca 3bbe
00000360: 2605 4d3e 1993 123e 5cb1 78be 24b6 b33c
00000370: 2358 04be a927 d1bd 7e1f 4ebd 1ae9 5d3e
00000380: 5cd4 233e b48f fbbd 3a9e 443e 90c5 2bbe
00000390: a64e 8bbe 5378 d33d 02b0 21bd 9e5e 1dbe
000003a0: d920 843e 842f 82be 262f 823e a828 8cbd
000003b0: e5b1 aa3e 2102 d1bd 20c8 a23e 6abc 593e
000003c0: 0453 61be af91 a0bd 8439 203e 776f 853e
000003d0: bdc3 acbe 825c aabe e7d8 94bc cccf 71be
000003e0: 8a44 0dbe af6c 6e3e f0e1 1fbc a64b 833d
000003f0: 75c7 b5bd 4c09 a5bc 752a 4bbe 7711 363e

linear2.weight f4 [3, 256]
0.007128496 0.022170188 -0.032825295 -0.026524529 0.019783204 0.014870091 0.0063041206 -0.051384002
-0.054357223 0.020411229 -0.044481955 0.08617869 -0.025211167 -0.0020421338 -0.010613455 0.028937608
0.06991539 -0.05750238 -0.022931367 -0.069507875 0.01971537 0.051210225 0.021569893 -0.124351025
-0.071713716 0.0055408664 -0.048715226 -0.013720631 -0.054470334 -0.02216407 -0.06698508 -0.077805236
-0.007917951 -0.015637988 -0.0926118 -0.054702967 -0.037733313 -0.045574997 -0.07916948 -0.023865437
-0.020448456 0.010393093 0.07346005 -0.047120895 -0.04941812 -0.036266416 0.010772211 -0.0057055145
0.0046811956 -0.046371266 0.006381281 0.028370945 -0.0636486 -0.041725475 0.01226642 0.042645484
-0.008483262 -0.08204568 -0.032431 -0.085904226 -0.032294404 -0.078477174 0.023147568 -0.006618579
-0.045072883 0.009090988 -0.0714896 0.01602571 0.018340174 -0.05848942 -0.030696156 -0.028444173
-0.016923213 -0.017910577 0.024695063 -0.028099228 -0.031405404 -0.038207218 -0.028028803 -0.069783404
0.01184362 -0.037438966 -0.039599642 0.029930547 -0.036107186 -0.0055344827 -0.0009879575 -0.015655214
-0.04871148 0.009411442 -0.011490638 -0.02891769 -0.03576343 -0.0684392 -0.000516436 0.024326684
-0.049654376 0.06670833 -0.059943993 -0.0033164592 -0.046296906 0.065620996 -0.021168768 0.0021489349
0.0023256643 -0.038821407 0.014054073 0.010269525 -0.032639604 -0.025726011 -0.057875756 0.056804188
0.020163905 -0.035447933 -0.041052565 0.0062412005 2.2313781e-05 -0.054413565 -0.027701467 -0.008462169
0.02403625 0.025583947 -0.07070844 -0.081123605 -0.010911143 -0.0505128 -0.055720203 0.009160821
-0.040398605 -0.053645737 0.02666663 -0.00021323134 -0.07784618 0.0012323044 -0.109321974 0.044433407
0.0067198277 -0.041597728 -0.033215694 -0.024132574 -0.082357526 -0.040451456 0.029213797 -0.0248845
-0.056111082 0.0684987 0.03957045 -0.052124627 -0.058992203 0.03649386 0.027275512 -0.024592519
0.012598092 0.057087857 -0.070644215 -0.07402142 0.04709448 0.055452343 0.02384684 -0.03915156
-0.017308008 0.0059512197 0.05435848 -0.0423625 -0.035119668 0.02714434 0.019336924 0.06730051
-0.0034362245 -0.020835167 -0.038707897 -0.04679484 0.032228008 -0.051352132 -0.0740054 -0.06909654
0.01332738 8.328483e-05 0.006063775 0.092052095 -0.04352031 -0.01300496 -0.059261784 -0.041477118
0.030219302 -0.022372069 -0.012912385 -0.013369187 0.017044215 -0.008640438 0.0333712 -0.011400306
-0.018208098 -0.023876868 -0.016941054 -0.040647633 0.04210937 0.018942075 -0.045778457 -0.07716392
0.049558874 -0.0686323 0.014089344 -0.06953644 -0.052423857 -0.04976306 -0.027215697 -0.000717701
-0.054667152 -0.030047622 0.010264747 -0.021391228 -0.05898092 0.024109872 0.01854597 -0.06118741
-0.008205895 0.028525323 -0.026269984 0.021640414 0.017724842 -0.032668736 0.0067944694 -0.0042390083
-0.02431549 -0.0033217533 0.014512088 -0.0061103767 -0.021351863 -0.038457993 -0.01684165 -0.024148483
-0.055824846 -0.03403979 0.028048929 -0.044879638 -0.0068474645 0.036775082 0.02179197 -0.055740822
-0.0040381094 0.086928055 -0.010671383 -0.04145933 0.011171536 0.009165674 -0.1017546 -0.005020373
-0.03155274 -0.022031235 -0.049603503 -0.023197923 0.047482595 -0.06043643 -0.010261907 -0.041484844
00000000: 2996 e93b 419e b53c d173 06bd f849 d9bc
00000010: 6310 a23c afa1 733c cc92 ce3b 0878 52bd
00000020: aea5 5ebd 7335 a73c b632 36bd 747e b03d
00000030: a687 cebc 52d5 05bb 0fe4 2dbc 900e ed3c
00000040: cd2f 8f3d 9e87 6bbd 90da bbbc 255a 8ebd
00000050: 2182 a13c d0c1 513d 58b3 b03c c0ab febd
00000060: a4de 92bd 2890 b53b 9e89 47bd 7fcc 60bc
00000070: 491c 5fbd 6c91 b5bc 792f 89bd 5a58 9fbd
00000080: 4bba 01bc 3d1b 80bc 41ab bdbd 3810 60bd
00000090: 3f8e 1abd d9ac 3abd 9c23 a2bd 7381 c3bc
000000a0: 8583 a7bc cb47 2a3c 3972 963d d701 41bd
000000b0: a86a 4abd 188c 14bd ed7d 303c 53f5 babb
000000c0: b764 993b ccef 3dbd 111a d13b 2f6a e83c
000000d0: 325a 82bd 55e8 2abd 18f9 483c 08ad 2e3d
000000e0: 61fd 0abc 9107 a8bd 5ed6 04bd 8eee afbd
000000f0: 2347 04bd a4b8 a0bd f89f bd3c aae0 d8bb
00000100: 589e 38bd 5ef2 143c 2469 92bd 5a48 833c
00000110: 223e 963c 9a92 6fbd 8176 fbbc c103 e9bc
00000120: 8da2 8abc 34b9 92bc 4d4d ca3c 5a30 e6bc
00000130: f4a2 00bd 2c7f 1cbd a99c e5bc 9aea 8ebd
00000140: be0b 423c 9a59 19bd 3c33 22bd e830 f53c
00000150: 21e5 13bd 9b5a b5bb 5a7e 81ba 5d3f 80bc
00000160: b085 47bd 7332 1a3c 3b43 3cbc cbe4 ecbc
00000170: ad7c 12bd da29 8cbd 6f61 07ba c148 c73c
00000180: 6362 4bbd 609e 883d d587 75bd f458 59bb
00000190: d3a1 3dbd 4d64 863d 206a adbc 25d5 0c3b
000001a0: 2c6a 183b 3203 1fbd 0e43 663c 8341 283c
000001b0: 1bb1 05bd 5bbf d2bc 210f 6dbd 82ab 683d
000001c0: c62e a53c da31 11bd bc26 28bd fc82 cc3b
000001d0: 7b2e bb37 c2e0 5ebd 30ee e2bc e9a4 0abc
000001e0: abe7 c43c 6d95 d13c 96cf 90bd 2224 a6bd
000001f0: a7c4 32bc 83e6 4ebd de3a 64bd 4517 163c
00000200: 0279 25bd a2bb 5bbd fa73 da3c da96 5fb9
00000210: d16d 9fbd 4685 a13a 33e4 dfbd ceff 353d
00000220: 0032 dc3b 6162 2abd 2e0d 08bd adb1 c5bc
00000230: 10ab a8bd 6db0 25bd c651 ef3c 94da cbbc
00000240: bcd4 65bd 0c49 8c3d a014 223d a280 55bd
00000250: cfa1 71bd 967a 153d e570 df3c 4076 c9bc
00000260: 3a68 4e3c f5d4 693d eaad 90bd 8b98 97bd
00000270: 24e6 403d ff21 633d 735a c33c 635d 20bd
00000280: 86c9 8dbc 7302 c33b ffa6 5e3d 4d84 2dbd
00000290: a4d9 0fbd cf5d de3c 7868 9e3c dad4 893d
000002a0: 4832 61bb 83ae aabc 2c8c 1ebd f2ab 3fbd
000002b0: 8401 043d 9d56 52bd 2590 97bd 7d82 8dbd
000002c0: 155b 5a3c 34a9 ae38 a2b2 c63b cf85 bc3d
000002d0: 5a42 32bd c112 55bc 7cbc 72bd e9e3 29bd
000002e0: 788e f73c a145 b7bc 788e 53bc 6f0a 5bbc
000002f0: 4fa0 8b3c a090 0dbc 3db0 083d 59c8 3abc
00000300: 2629 95bc 6c99 c3bc f7c7 8abc 227e 26bd
00000310: e07a 2c3d 692c 9b3c 3182 3bbd 1e08 9ebd
00000320: 3ffe 4a3d 178f 8cbd fed6 663c 1f69 8ebd
00000330: 66ba 56bd 5ad4 4bbd 74f3 debc 1924 3cba
00000340: aaea 5fbd 6e26 f6bc 782d 283c a83c afbc
00000350: fa95 71bd 1182 c53c b8ed 973c a69f 7abd
00000360: 0572 06bc f0ad e93c 2634 d7bc 3d47 b13c
00000370: b033 913c a7cf 05bd 24a4 de3b 61e7 8abb
00000380: 4731 c7bc c6b1 59bb 1cc4 6d3c 8e39 c8bb
00000390: 1aea aebc 2186 1dbd 80f7 89bc 0ad3 c5bc
000003a0: 98a8 64bd 4f6d 0bbd dec6 e53c b6d3 37bd
000003b0: b260 e0bb 78a1 163d 1385 b23c 7d50 64bd
000003c0: 1e52 84bb 5607 b23d 06d7 2ebc 42d1 29bd
000003d0: d108 373c a02b 163c b764 d0bd f181 a4bb
000003e0: 723d 01bd d97a b4bc 0b2d 4bbd 9209 bebc
000003f0: 1c7d 423d 318c 77bd 8f21 28bc 03ec 29bd

linear2.bias f4 [3]
0.014473366 -0.042078193 0.017436648
00000000: b221 6d3c 2f5a 2cbd 4dd7 8e3c
